models/mimic_motion_pose_net.safetensors (safetensors, 412730 bytes, 17 tensors)

conv_layers.0.weight f2 [3, 3, 3, 3]
00000000: 5ea5 dd3a c434 80a8 e134 0c2e 25b2 40b5
00000010: 8db3 f5b0 38b4 0f35 cdb4 f3b7 ddad 3235
00000020: 4734 0cb1 a4ac 1132 a5ae 4530 1fac 3bb5
00000030: 7835 f0b5 76b5 c6b1 f733 63b7 0e9a f224
00000040: 922b 3cb1 122a d52a f829 65ae a4b0 259f
00000050: e6b3 a6b7 09b7 ddac 6023 0c34 08b3 97b4
00000060: 2a32 d830 0bb4 6730 35b1 fc35 c4ad a6a4
00000070: 7733 56b6 4331 e1a8 96b6 e7b0 b1b3 12ac
00000080: 1433 7036 b531 6336 ceb6 1421 5d32 b8af
00000090: b3b5 feb7 31b4 f52a bda2 35ba 1332 79ae
000000a0: db0c
-0.02097 0.858 0.2979 -0.03516 0.305 0.0945 -0.192 -0.3281
-0.236 -0.1549 -0.2637 0.3162 -0.3 -0.4968 -0.0916 0.3247
0.2673 -0.1577 -0.0725 0.1896 -0.1038 0.1334 -0.0644 -0.327
0.3418 -0.371 -0.3413 -0.1804 0.2489 -0.4617 -0.002956 0.01932
0.05914 -0.1636 0.04742 0.05338 0.04663 -0.0999 -0.145 -0.006977
-0.2468 -0.478 -0.4397 -0.076 0.014404 0.253 -0.2197 -0.2869
0.1926 0.1514 -0.2527 0.1376 -0.1627 0.374 -0.0901 -0.01816
0.2333 -0.396 0.1644 -0.03812 -0.4116 -0.1532 -0.2404 -0.0636
0.2212 0.4023 0.1783 0.3992 -0.4253 0.00992 0.1989 -0.1206
-0.3562 -0.4995 -0.262 0.05435 -0.01316 -0.776 0.1898 -0.10114
0.0002964

conv_layers.10.bias f2 [64]
00000000: 299e 48a5 05a4 3ca2 6f23 f39e aba3 37a1
00000010: 9019 28a4 3ba7 879c eea5 6209 5d9c 8fa1
00000020: 6ba4 c3a2 d0a1 41a4 c6a4 0da6 641f 46a2
00000030: bca1 dda4 1fa0 83b4 8b9d 60a4 bf18 97b1
00000040: e31f 8f18 e8a1 63a2 4aa1 e2a0 40a5 cd1a
00000050: 36a0 c420 61a0 21a2 d59d e4a4 07a4 3aa5
00000060: 45a6 fb93 2e20 aea7 5098 04a1 66a4 5fa2
00000070: f1b3 42a4 0e9f 0aa0 71a2 361c 7aa1 0919
-0.006016 -0.02063 -0.0157 -0.01218 0.01452 -0.006786 -0.01498 -0.010185
0.002716 -0.01624 -0.02824 -0.00442 -0.02316 0.0001643 -0.00426 -0.01086
-0.01726 -0.01321 -0.01135 -0.01662 -0.01865 -0.02364 0.007217 -0.01225
-0.0112 -0.019 -0.00805 -0.282 -0.005413 -0.01709 0.002317 -0.1747
0.0077 0.002226 -0.011536 -0.012474 -0.01033 -0.00954 -0.02051 0.00332
-0.008224 0.00931 -0.00855 -0.01197 -0.005695 -0.0191 -0.01573 -0.02042
-0.02449 -0.000974 0.00816 -0.03 -0.002106 -0.009796 -0.01718 -0.01244
-0.2482 -0.01663 -0.00689 -0.00789 -0.01258 0.004112 -0.0107 0.002459

conv_layers.10.weight f2 [64, 32, 4, 4]
00000000: 23aa 14a4 d2ab cb23 baa5 9b21 4ba8 832d
00000010: e32c 23ae 33b1 d82a 8929 26ad c6ab 19a9
00000020: 6229 1b28 562b 2a29 4c28 d724 33aa 47a9
00000030: c82d 00a3 82a4 3ca4 fc2c 6bac 6ead 76ae
00000040: cda1 24aa c52c 23a8 aa1d 6d21 5321 341e
00000050: 0bac c1a9 a4a5 6dae 6bb0 7e24 b028 0596
00000060: 1197 31a4 90a6 65ae d9ae 562d af2d 9196
00000070: 85aa 532e f128 d4a8 2900 c0a8 65a5 dca1
00000080: 41ac f42a ea2b 5022 38ac c5a7 3ba8 df2f
00000090: 40aa dfac 5d20 4024 a7a6 ada8 8cad 0930
000000a0: a8a4 df25 f3a4 c7af 0d29 7aa6 aa1a 0ca3
000000b0: 982e 0428 14a4 00a8 41aa cb2e a82a dc1c
000000c0: 3928 87ad 262a 092c 6c9c 5f29 bc2d 3127
000000d0: bfad 94a4 c42f 252e 78ae 07a9 e4a8 89ac
000000e0: 50ab cc9e 0b2a 8924 61ab 539a ba1e 479c
000000f0: caa6 8a30 7a30 9f1c 4aac 2f2e 1fad e1a5
00000100: 0dae cfad 79ab 0727 58af c322 a9aa 7630
00000110: d8a9 f6a8 4e2d a32d 0eab 3325 4030 3a27
00000120: bfa9 90af 4caa 0318 b0ad 7796 38a6 2aab
00000130: d81e 9c2b 3f12 a528 2a28 502d b02a 6b30
00000140: 502a 6529 0529 4e2d 8ca9 32a6 9320 072a
00000150: 8f98 b3a4 edaa 871b 7b91 7d2e 7dae b1ac
00000160: 9a2e 7c94 afb0 4528 6f23 e42c 83aa 90ac
00000170: 2aa5 422d 602a df25 27a8 e52b 0c2d 2528
00000180: 0a9c fe28 6720 d524 7aa9 6c27 032f 4e23
00000190: 28ac 4120 53a8 75ad 7faa 0924 faaa 36ac
000001a0: 7c28 8594 1da8 b7b0 a52d 412c 6ab0 a7ac
000001b0: 63a3 3425 31b1 62a5 c626 93a5 e5b0 992b
000001c0: c12c e6ac c0a9 272d bc1e 2826 a19c 4bb0
000001d0: dc98 27af 0baa d1ad e12d de29 7729 96ad
000001e0: 81a9 0ea9 17ab b827 ba9c 8428 8fac ed2d
000001f0: fa91 bfa9 a12c 2aa7 5b2a eead 1c32 db2c
-0.04794 -0.01593 -0.0611 0.01522 -0.02237 0.01095 -0.03354 0.0861
0.07635 -0.0959 -0.1625 0.05347 0.04324 -0.08044 -0.06073 -0.03983
0.04205 0.03207 0.0573 0.04034 0.03357 0.0189 -0.04843 -0.04123
0.09033 -0.01367 -0.01761 -0.01654 0.0779 -0.06903 -0.08484 -0.10095
-0.01133 -0.04797 0.0745 -0.03232 0.00553 0.0106 0.0104 0.006058
-0.0632 -0.04495 -0.02203 -0.1004 -0.1381 0.01755 0.03662 -0.00147
-0.001725 -0.01637 -0.02563 -0.0999 -0.107 0.0834 0.0888 -0.001603
-0.05093 0.0988 0.0386 -0.03772 2.44e-06 -0.0371 -0.02107 -0.011444
-0.06647 0.05432 0.06183 0.01233 -0.0659 -0.03035 -0.03305 0.123
-0.04883 -0.0761 0.00852 0.0166 -0.02599 -0.03653 -0.0867 0.1261
-0.01819 0.02293 -0.01933 -0.1215 0.03946 -0.0253 0.003254 -0.01376
0.103 0.03137 -0.01593 -0.03125 -0.04886 0.10614 0.052 0.004745
0.033 -0.08636 0.04803 0.06305 -0.00432 0.04196 0.0896 0.02809
-0.0898 -0.01788 0.12134 0.096 -0.1011 -0.03928 -0.0382 -0.07086
-0.05713 -0.006638 0.0472 0.01772 -0.05765 -0.003088 0.00657 -0.004177
-0.02652 0.1418 0.1399 0.004513 -0.067 0.0966 -0.08 -0.02296
-0.09454 -0.09076 -0.05838 0.02745 -0.11475 0.01321 -0.05203 0.1394
-0.04565 -0.03876 0.0829 0.0881 -0.0551 0.02031 0.1328 0.02823
-0.0449 -0.11816 -0.0492 0.001959 -0.08887 -0.001578 -0.02429 -0.05597
0.006683 0.05945 0.0007625 0.0363 0.03253 0.083 0.05225 0.1381
0.04932 0.04214 0.0392 0.0829 -0.04333 -0.0242 0.008934 0.0471
-0.002226 -0.01836 -0.0541 0.003675 -0.000669 0.1014 -0.1014 -0.0733
0.10315 -0.001095 -0.1464 0.03336 0.01452 0.0764 -0.05087 -0.0713
-0.02017 0.08215 0.0498 0.02293 -0.03244 0.06168 0.07886 0.03238
-0.003944 0.039 0.0086 0.01888 -0.0428 0.02899 0.10956 0.01427
-0.06494 0.00831 -0.03378 -0.08527 -0.05075 0.01576 -0.0545 -0.0658
0.03503 -0.001103 -0.03214 -0.1473 0.0882 0.06647 -0.138 -0.0727
-0.01443 0.02032 -0.1622 -0.02103 0.02646 -0.02177 -0.153 0.05936
0.0743 -0.07654 -0.04492 0.0805 0.006577 0.02405 -0.00452 -0.1342
-0.002373 -0.11176 -0.0472 -0.0909 0.09186 0.04584 0.0427 -0.0873
-0.043 -0.0395 -0.0554 0.03015 -0.004616 0.03528 -0.0712 0.0926
-0.0007296 -0.0449 0.0723 -0.02798 0.04965 -0.09265 0.1909 0.07587

conv_layers.12.bias f2 [64]
00000000: b297 909a 65a5 8b19 eea4 03a4 b09f 009d
00000010: 97a2 1ba2 b5a0 1da6 0ba5 c89a c698 6aa7
00000020: 59a6 60a1 e21d 61a0 339c 0290 a19e eca2
00000030: 84a3 2496 4aa3 3da8 18a6 0e9c 5321 889a
00000040: 80a5 cfa1 2f9d dd9e b898 c0a0 7791 afa3
00000050: f8a5 b1a0 d119 8ba5 e9a4 3fa7 2313 5ba4
00000060: 9ca5 3797 e59e 639e 5f9e 121e 009d 5d9c
00000070: e697 9198 5aa1 76a5 c7a2 9212 22a1 ba12
-0.001879 -0.003204 -0.02107 0.002707 -0.01926 -0.01567 -0.007507 -0.004883
-0.01287 -0.011925 -0.00919 -0.02388 -0.0197 -0.003311 -0.00233 -0.02896
-0.0248 -0.0105 0.005745 -0.00855 -0.0041 -0.000489 -0.006474 -0.01352
-0.01468 -0.001499 -0.01424 -0.0331 -0.0238 -0.00396 0.0104 -0.00319
-0.02148 -0.011345 -0.005062 -0.006702 -0.002304 -0.00928 -0.000667 -0.01501
-0.02332 -0.00916 0.00284 -0.02165 -0.01918 -0.0283 0.000871 -0.01701
-0.02191 -0.001761 -0.006733 -0.006237 -0.00622 0.005928 -0.004883 -0.00426
-0.001928 -0.00223 -0.01045 -0.02133 -0.01324 0.000802 -0.010025 0.000821

conv_layers.12.weight f2 [64, 64, 3, 3]
00000000: 4f20 bf1d 2b29 172d c9b2 2daa d823 f994
00000010: fba9 6a29 d52a 02ac 14a9 532f fbae bd28
00000020: 520e 7e27 41a1 1217 819b 1428 3d9a b0ad
00000030: cb28 84a6 4a24 fc2b 05ae 5ca3 a811 3f2d
00000040: 2aaf 0425 12a8 972c db28 64a8 47a8 7aa3
00000050: c8ad 86a9 5c22 b02c 5830 fe9b 52b0 8123
00000060: 9f28 e027 4f22 942b 22a4 9e2c 7c2a 6923
00000070: 46a0 99ab 982f 69aa 38a9 0921 90ac 5f2c
00000080: 152a afa8 032b 88ad de29 e5a8 b3a7 b12b
00000090: bda4 7f1f c919 79ab f22c 5da5 419f a82b
000000a0: 502a 83ab 8cae eba2 72a8 0a92 ef2b 0a22
000000b0: b9ad 7030 06a9 b629 d526 74a6 9dae 381d
000000c0: 3926 b72f efad 1caa c7ad c89c 7b28 daa6
000000d0: 6528 aca6 4429 73a5 3231 0eb0 a782 79a3
000000e0: 28a8 b184 4426 8c29 982a 77ac cca8 1dad
000000f0: 27a4 b52b 2829 9a2c 2826 aa2c 362e 3228
00000100: fe25 bbac f12a 21ab 72a3 46ab a926 2199
00000110: 5b28 7ba5 edaa 1930 26aa fbae 9324 c72c
00000120: 1325 639d f12b 879c 8028 bb26 7e2d cc29
00000130: cfaa 03aa f5a5 73a9 7f2f 1726 2a30 1526
00000140: ddac 66b0 1a2b 7ea2 3dac 7221 02a1 e220
00000150: 6d2c 06b0 1725 6b20 352e 5a2e a0aa 2d30
00000160: eea8 7a9d fea7 31ad 8628 952c 03ac ed2c
00000170: c1a4 ec1c f21f 12a8 aa2a 79b0 8b25 0b2d
00000180: 84a6 752f e79e ebac 532b 5d24 862b 43a9
00000190: 85ad 5725 0c28 bfa3 a794 fbaf 591b 1da7
000001a0: 459f 6222 c52c e8ac a12b 41a6 9b9b 57ac
000001b0: b424 6028 9bad 40ab 6aa6 2a23 4fa7 01a6
000001c0: d827 8b15 6f2c acad ee2e 42a5 20a2 de9f
000001d0: 96ac 3aa1 49ac dc28 0ea8 bba2 3829 db2c
000001e0: b82c 88a1 a82e ed9a c5ab 6ea5 a29a 8c28
000001f0: a32a 5d26 7e2b 852c b7a0 c32a b7a9 fd29
0.008415 0.00561 0.04037 0.0795 -0.212 -0.04825 0.01532 -0.001214
-0.04672 0.0423 0.05338 -0.0626 -0.03967 0.11444 -0.1091 0.03702
0.0003858 0.02927 -0.01026 0.001726 -0.003664 0.03186 -0.003046 -0.08887
0.03745 -0.02545 0.01675 0.06238 -0.09406 -0.01437 0.0006905 0.082
-0.11194 0.01959 -0.0318 0.0717 0.03793 -0.0343 -0.03342 -0.0146
-0.09033 -0.04315 0.01242 0.07324 0.1357 -0.003902 -0.135 0.014656
0.0361 0.03076 0.01232 0.0592 -0.01614 0.07214 0.05066 0.01447
-0.00835 -0.05936 0.11865 -0.05008 -0.04077 0.009834 -0.0713 0.0683
0.04752 -0.0366 0.05478 -0.0864 0.04584 -0.03824 -0.03008 0.0601
-0.01851 0.00732 0.002825 -0.05838 0.0773 -0.02095 -0.007084 0.0598
0.04932 -0.0587 -0.1023 -0.01351 -0.03473 -0.000737 0.06198 0.011795
-0.0894 0.1387 -0.03925 0.04462 0.02669 -0.0252 -0.10333 0.005096
0.0243 0.12054 -0.0927 -0.04773 -0.0903 -0.00467 0.035 -0.02676
0.03433 -0.02606 0.04114 -0.02129 0.1624 -0.1267 -4.05e-05 -0.014595
-0.03247 -7.16e-05 0.02448 0.04333 0.0515 -0.06976 -0.03748 -0.0799
-0.01622 0.0602 0.04028 0.0719 0.02405 0.0729 0.09705 0.03278
0.0234 -0.0739 0.05423 -0.0557 -0.01454 -0.05682 0.02602 -0.002504
0.03403 -0.02141 -0.0541 0.128 -0.04803 -0.1091 0.01787 0.07465
0.01982 -0.00526 0.06204 -0.00442 0.03516 0.02629 0.0858 0.0453
-0.0532 -0.04697 -0.02327 -0.04257 0.1171 0.02379 0.1301 0.02376
-0.076 -0.1375 0.05548 -0.01268 -0.0662 0.010635 -0.00978 0.00954
0.06915 -0.1257 0.01988 0.00863 0.097 0.09924 -0.05176 0.1305
-0.0385 -0.00535 -0.03122 -0.0811 0.03534 0.0716 -0.0627 0.07697
-0.01857 0.004807 0.00776 -0.0318 0.05206 -0.1398 0.02165 0.0788
-0.02545 0.1165 -0.00674 -0.07684 0.05722 0.01704 0.05878 -0.0411
-0.08624 0.02086 0.03162 -0.01513 -0.001136 -0.1247 0.003588 -0.02779
-0.0071 0.01247 0.0745 -0.07666 0.0596 -0.02443 -0.003714 -0.0678
0.01837 0.03418 -0.0876 -0.05664 -0.02505 0.01399 -0.02855 -0.02345
0.03064 0.001353 0.0693 -0.0886 0.1083 -0.02054 -0.01196 -0.007683
-0.07166 -0.01021 -0.06696 0.03796 -0.03168 -0.013145 0.04077 0.07587
0.0737 -0.0108 0.104 -0.003382 -0.0607 -0.02121 -0.003239 0.03552
0.05185 0.02486 0.05853 0.0706 -0.00921 0.05283 -0.04465 0.04678

conv_layers.14.bias f2 [128]
00000000: 0896 159c 7b96 5385 dfa4 10a1 9ea2 769a
00000010: 2b19 029d bfac e09a 879e 7994 a69d a60d
00000020: 02a8 609c b49a e0a2 7f94 c696 4f9f 7c9d
00000030: f89e 45ac 28a9 479a 7f98 a88c 3313 1999
00000040: 959b 6c99 689e 4195 189b f49c f498 368c
00000050: 9994 0996 a291 949b c09b 9298 479f f998
00000060: 4198 459b 9e97 859c caa2 069b 409c a0a1
00000070: 4d17 2d8d 439d 35a5 4095 1f9e af90 b899
00000080: 208c f0a5 188c 2999 7b99 e993 b797 b89d
00000090: ee97 5091 8115 6d94 4ca2 2d91 31ac 6999
000000a0: 2a9b ae17 fb92 879a 8898 639e b714 2985
000000b0: 0d8a f290 f103 2b0e 71a4 f798 c10d 4e91
000000c0: 159a 5997 a1a9 f498 9a9e e398 0696 1c9c
000000d0: fa8d db99 1b99 f69a 160b 2d12 c29a a997
000000e0: 7e9a d6a5 2892 7898 8292 4198 f59b e891
000000f0: 4398 559b 8498 3615 85a0 c094 2599 110f
-0.001472 -0.003986 -0.001582 -8.124e-05 -0.01903 -0.00989 -0.012924 -0.003155
0.002523 -0.00489 -0.07416 -0.003357 -0.006374 -0.001092 -0.005516 0.0003448
-0.0313 -0.004272 -0.003273 -0.01343 -0.001098 -0.001654 -0.007137 -0.005356
-0.006805 -0.0667 -0.04028 -0.003065 -0.002195 -0.0002842 0.000879 -0.00249
-0.003702 -0.002647 -0.006256 -0.001283 -0.003464 -0.004837 -0.002419 -0.000257
-0.001122 -0.001473 -0.0006876 -0.0037 -0.003784 -0.002232 -0.007107 -0.002428
-0.002077 -0.00355 -0.00186 -0.004414 -0.01326 -0.00343 -0.00415 -0.01099
0.001782 -0.000316 -0.00514 -0.02034 -0.001282 -0.005978 -0.0005717 -0.002792
-0.0002518 -0.0232 -0.0002499 -0.00252 -0.002676 -0.0009656 -0.0018835 -0.005585
-0.001936 -0.0006485 0.001344 -0.0010805 -0.0123 -0.000632 -0.0655 -0.002642
-0.003498 0.001875 -0.000852 -0.003187 -0.002213 -0.006237 0.001151 -7.874e-05
-0.0001847 -0.0006037 6.014e-05 0.0003765 -0.01735 -0.002424 0.0003512 -0.0006475
-0.00297 -0.001794 -0.04398 -0.002419 -0.006447 -0.002386 -0.001471 -0.004013
-0.0003648 -0.00286 -0.002493 -0.003399 0.0002162 0.000754 -0.0033 -0.00187
-0.00317 -0.0228 -0.0007515 -0.002182 -0.0007944 -0.002077 -0.003885 -0.000721
-0.00208 -0.00358 -0.002205 0.001272 -0.00883 -0.00116 -0.002512 0.0004313

conv_layers.14.weight f2 [128, 64, 3, 3]
00000000: 21a6 1996 5a2b 5ca8 11a0 28ad 3ba3 40a6
00000010: 40ac 109d 61a6 511d 28a4 5aa6 4010 3728
00000020: 8ea1 741f 87a9 2320 ebad 46a4 f726 1c2d
00000030: 24a9 8aa2 7624 18a8 b0a8 fca3 77a8 6d25
00000040: ac9d b7a8 f629 109b 40ab 93aa 5f9e 8f2d
00000050: f22d 0520 a22c 1e23 e52b 412d 13a3 8cac
00000060: 871f a325 df2c 9ba0 e2ae a124 e124 1224
00000070: a12a c825 f3a6 7aa4 d0a7 0628 7b2a 2c23
00000080: 332e 0fac 6eaa 67a7 b7a9 d12a dba7 c51c
00000090: 3a1d 6f9c 872d e824 37a2 b329 97ae c2a9
000000a0: df1f 9ca8 b62a 13ac 5b29 b9ab 272b ac26
000000b0: 4daa ceaa f1a4 219c 04a1 8dab 10a7 8f2b
000000c0: 7da2 bda9 3a29 dda3 d5a1 3928 7729 f228
000000d0: cfa8 b729 51a8 02a4 cf2c 5dad 8898 ff22
000000e0: 6fa9 1c9f 8e1e 57a4 bc25 4bac 8aac a32c
000000f0: ff2a 632a acaa 9f29 401a 7b28 1229 acaa
00000100: cf9c eba7 1c27 faa9 35a9 9a1b b52c 8628
00000110: 062c 5226 aea7 9ea7 322d d1ac f3ac 4124
00000120: d929 ef25 c829 31a5 6ba5 0aa1 a629 dbac
00000130: 16ac 38a3 f829 6d2e 5528 7223 acab e723
00000140: baa5 b71d 25ae daa0 2c2c 6fab 5ca9 dd2b
00000150: 07ac fd29 bf96 76ad a92b b327 16aa b1ab
00000160: 092b 19a8 732b 971e 982c 8627 ae1d 442a
00000170: 22aa 2aa9 f0ad 2d2b cfad 7417 1daa 51a5
00000180: f92d 4ca8 b5af 8e28 4929 4f2d faa7 032f
00000190: d3a3 77a7 bf2c 6728 46aa 241b 329c 18aa
000001a0: 87a3 22a6 62ab c62d fe9c 50a5 a42c 149f
000001b0: 03a8 d4a8 1ea3 ca9e 062b d620 4226 27a6
000001c0: eda5 f424 06ac 5ca5 27ad d628 9416 9ea6
000001d0: 5f28 a32c f9a7 2828 3026 f822 e6a5 1c20
000001e0: 33a5 e0a5 57a8 dea4 c216 58a4 0ea6 b726
000001f0: 379d ce9e b42a 6e21 242c 2bae 3ea8 faa5
-0.02394 -0.001489 0.05743 -0.03406 -0.00794 -0.08057 -0.01412 -0.02441
-0.0664 -0.004944 -0.02492 0.00519 -0.01624 -0.02481 0.000519 0.03293
-0.01085 0.00728 -0.04318 0.00808 -0.09247 -0.0167 0.0272 0.07983
-0.04016 -0.01277 0.01743 -0.03198 -0.03662 -0.015594 -0.03488 0.0212
-0.00554 -0.03683 0.04657 -0.003448 -0.05664 -0.05136 -0.00622 0.08685
0.0929 0.00785 0.0724 0.0139 0.06168 0.0821 -0.01382 -0.07104
0.00735 0.02202 0.0761 -0.008995 -0.10754 0.01808 0.01906 0.0159
0.0518 0.02258 -0.02715 -0.01749 -0.03052 0.03143 0.05063 0.01401
0.09686 -0.0634 -0.05023 -0.02892 -0.04465 0.05325 -0.03069 0.004658
0.005104 -0.00433 0.08636 0.01917 -0.01214 0.04453 -0.10297 -0.04498
0.007687 -0.036 0.05243 -0.06366 0.04184 -0.06033 0.05588 0.02606
-0.04922 -0.05316 -0.0193 -0.004032 -0.009796 -0.059 -0.02759 0.05905
-0.01267 -0.04483 0.04083 -0.01536 -0.01139 0.033 0.0427 0.03864
-0.03757 0.04465 -0.03372 -0.01566 0.07513 -0.0838 -0.002213 0.013664
-0.04245 -0.006943 0.0064 -0.01695 0.0224 -0.0671 -0.0709 0.07245
0.05466 0.0499 -0.05212 0.0439 0.003052 0.035 0.0396 -0.05212
-0.004696 -0.03093 0.02777 -0.0467 -0.04068 0.003712 0.07355 0.03534
0.06287 0.02469 -0.03 -0.02975 0.0812 -0.07526 -0.07733 0.01662
0.0457 0.02318 0.04517 -0.02028 -0.02116 -0.00984 0.04413 -0.07587
-0.06384 -0.0141 0.04663 0.1004 0.03384 0.01454 -0.05994 0.015434
-0.02237 0.00558 -0.096 -0.009476 0.0652 -0.05807 -0.04187 0.06143
-0.0629 0.04678 -0.001647 -0.0853 0.05984 0.03008 -0.04755 -0.0601
0.05496 -0.032 0.0582 0.006435 0.0718 0.02939 0.005547 0.04895
-0.0479 -0.04034 -0.0928 0.05606 -0.09076 0.00182 -0.04776 -0.02077
0.0933 -0.03357 -0.1204 0.03558 0.0413 0.08295 -0.03116 0.10956
-0.01528 -0.02916 0.07416 0.0344 -0.049 0.003487 -0.004097 -0.0476
-0.0147 -0.02396 -0.05768 0.0902 -0.004875 -0.02075 0.0725 -0.006912
-0.03134 -0.03772 -0.0139 -0.00663 0.05487 0.009445 0.02444 -0.02403
-0.02315 0.01935 -0.06287 -0.02094 -0.0805 0.03778 0.001606 -0.02585
0.03415 0.07245 -0.03114 0.03247 0.02417 0.01361 -0.02304 0.008026
-0.02031 -0.02295 -0.0339 -0.01901 0.00165 -0.01697 -0.02365 0.02623
-0.005093 -0.006645 0.05237 0.010605 0.0647 -0.0964 -0.03314 -0.02335

conv_layers.2.bias f2 [16]
00000000: b62c 8ca1 b829 842c 52ae 382e 292a e029
00000010: b22c e323 5424 9d2b 85a8 bc2c 1a26 932b
0.0736 -0.01083 0.04468 0.07056 -0.09875 0.09717 0.04813 0.0459
0.07336 0.0154 0.0169 0.05948 -0.0353 0.074 0.02383 0.05917

conv_layers.2.weight f2 [16, 3, 4, 4]
00000000: b8ab 6728 b8ac 5233 52a8 e32f e134 d732
00000010: 39ac f3b1 6031 fbb0 d4a8 5da8 2231 d5b5
00000020: 4035 d2ad 0e9d 1db3 e8af 9d31 40a5 ddb5
00000030: f7b1 fe31 2131 eb29 e7b0 cc32 d3a4 de37
00000040: 25a4 b41c deaf 62b1 c22a 972e eeb3 1b30
00000050: cf33 fb30 83b5 a82c c1af 66b4 77b3 1229
00000060: e2ad 3ab6 8fb1 022a 3e1e 2d37 6e20 4629
00000070: b52f 802a 9db5 4225 6fad 11b8 7fa4 af1b
00000080: dd33 262f d934 6a31 8c32 8d2f d9a4 b434
00000090: 8c33 46a5 b0b4 7b2b 4c2b 0931 3031 17b6
000000a0: a92e 67b3 6d24 8db1 8ea3 3630 212c a832
000000b0: 1734 1ca4 612e e52a 1632 e8b0 69b6 ecb6
000000c0: ca30 4cb9 13ac 8ea8 cdb1 e428 9eb3 7f2c
000000d0: 6fb4 3336 962c 552d 59af 09b1 80b4 902d
000000e0: 16aa 87a8 fe26 bbb0 32b4 59b1 562b 7b2b
000000f0: 2ab6 572d c32a f2ac 82b0 edb2 7431 8fa2
00000100: 25ad e91a 31b4 d3ad 8933 beb6 b2aa 2c2d
00000110: 362c 1daa 1932 17ac 172b 80b4 5bb0 f0b4
00000120: e628 67ac 2aac b3ae cd32 8d36 5534 95b4
00000130: 8aae 34b8 73b1 292e 4b2c afa1 a72a 6bb5
00000140: 5e34 d42f be2a 932d 34ae c3ad 03b0 292b
00000150: 21b3 2bb4 9db0 0634 c9aa dd33 66b1 22ac
00000160: 4836 f2b1 9931 11ad 11ad eba5 dd26 0b30
00000170: cdad 5f2e d8ae dab6 6732 5d33 cd31 b8b1
00000180: 34b2 da30 9833 67a9 f029 02a5 dd33 09a3
00000190: 8825 f893 cb31 102c dcb7 84b0 4230 c334
000001a0: 9220 e231 b2b0 4aac 22b0 24a4 8aa5 491c
000001b0: 1936 aea6 4c34 b131 0bb0 b1ac b935 792d
000001c0: 1527 2029 3f33 58b2 e231 6430 3b30 04b4
000001d0: 9731 c329 fcaf aa2c c629 8d24 c7a5 a52f
000001e0: 60b0 2cb4 3931 2220 9830 2da4 7232 a138
000001f0: 17ac fcac 7db0 b834 f0b3 0733 47b5 a8b8
-0.0603 0.0344 -0.0737 0.2288 -0.03375 0.1232 0.305 0.2137
-0.066 -0.1859 0.168 -0.1556 -0.03772 -0.0341 0.1604 -0.3645
0.3281 -0.09094 -0.004936 -0.2223 -0.12354 0.1754 -0.02051 -0.3665
-0.1864 0.1873 0.1603 0.04623 -0.1532 0.2124 -0.01884 0.4917
-0.01619 0.004593 -0.1229 -0.1682 0.0528 0.10297 -0.2478 0.1283
0.244 0.1556 -0.3445 0.07275 -0.12115 -0.275 -0.2333 0.0396
-0.0919 -0.3892 -0.1737 0.04694 0.006096 0.4485 0.00865 0.0412
0.1204 0.05078 -0.3508 0.02054 -0.0849 -0.5083 -0.01756 0.003752
0.2457 0.1117 0.303 0.1692 0.2046 0.118 -0.01894 0.294
0.2358 -0.0206 -0.293 0.05844 0.057 0.1573 0.1621 -0.3806
0.10406 -0.2313 0.01729 -0.1735 -0.014755 0.1316 0.0645 0.208
0.2556 -0.01605 0.0997 0.05386 0.1902 -0.1533 -0.4006 -0.4326
0.1497 -0.662 -0.06366 -0.03558 -0.1813 0.0382 -0.238 0.07025
-0.277 0.3875 0.07166 0.0833 -0.1148 -0.1573 -0.2812 0.0869
-0.04755 -0.03537 0.02731 -0.1478 -0.2622 -0.1671 0.0573 0.05844
-0.3853 0.08344 0.05283 -0.0773 -0.1409 -0.2164 0.1704 -0.01281
-0.0804 0.003374 -0.262 -0.091 0.2355 -0.4214 -0.0523 0.0808
0.0658 -0.04776 0.1906 -0.0639 0.0554 -0.2812 -0.1361 -0.3086
0.03827 -0.0688 -0.06506 -0.1047 0.2125 0.4094 0.2708 -0.2864
-0.1022 -0.5254 -0.1703 0.09625 0.0671 -0.0111 0.05197 -0.3386
0.273 0.1223 0.05267 0.0871 -0.0969 -0.09 -0.1254 0.05594
-0.2228 -0.2605 -0.1442 0.2515 -0.053 0.2457 -0.1687 -0.0646
0.3926 -0.1858 0.1749 -0.07916 -0.07916 -0.02312 0.02681 0.1263
-0.09064 0.09955 -0.10693 -0.4282 0.2001 0.2301 0.1813 -0.1787
-0.1938 0.1516 0.2373 -0.0422 0.0464 -0.01956 0.2457 -0.01374
0.0216 -0.0009727 0.181 0.0635 -0.4912 -0.1411 0.133 0.2976
0.00893 0.1838 -0.1467 -0.067 -0.1292 -0.01617 -0.02164 0.004185
0.381 -0.0261 0.2686 0.1779 -0.1263 -0.0733 0.3577 0.0855
0.02766 0.04004 0.2264 -0.1982 0.1838 0.1372 0.1322 -0.251
0.1747 0.045 -0.12476 0.0729 0.0451 0.01778 -0.02257 0.11945
-0.1367 -0.2607 0.1632 0.00807 0.1436 -0.01631 0.2014 0.5786
-0.0639 -0.0779 -0.1403 0.295 -0.248 0.2196 -0.3298 -0.582

conv_layers.4.bias f2 [16]
00000000: 3d28 e9ac d3aa 3924 eb25 062a b020 baa9
00000010: 982a 02ac d228 11a9 4a20 1ba6 3b2a a7aa
0.0331 -0.0767 -0.0533 0.0165 0.02312 0.04706 0.009155 -0.04474
0.0515 -0.0626 0.03766 -0.03958 0.00838 -0.02385 0.04868 -0.05197

conv_layers.4.weight f2 [16, 16, 3, 3]
00000000: 3c31 f12f 832d ec32 8e32 6134 0da6 2cac
00000010: f330 1230 352a 2bb1 f532 88a7 adad 79ac
00000020: 9731 f7a8 afa9 7c31 8828 d929 9924 242c
00000030: 40af 9f27 fbac 789c f1a8 c4b0 6db4 91ac
00000040: 6024 b32e db31 b1ad c7ab 77aa 12a6 6729
00000050: cd2a 442e 1831 6d27 ddab 0731 caa8 7831
00000060: 5132 812b 03ae 8a2f 36af 7d9f c6ad 282d
00000070: adac 8121 1132 4531 1e26 55b0 7531 6130
00000080: cf25 3535 18aa 9d30 ae2c 4124 7232 2c34
00000090: 6fac 942f 3fb2 c02d 2e2c 9931 7e31 5f30
000000a0: fd29 75ae 9e99 3c2e 072d 49ac 3819 0630
000000b0: 8824 c1b0 a724 0421 1daa c9a7 c027 26ac
000000c0: 392b 59b1 2ead ed2c e62c c830 8832 1133
000000d0: d22e 0232 2aae 6230 eb30 4e94 14a6 53aa
000000e0: 85b2 209b 9132 7fa9 1829 0daa cb28 0e2c
000000f0: d6a8 e2a7 652c 1cb5 a6af 972b 2a31 8d29
00000100: 2f30 9227 6b30 cd27 401d 7ca9 b930 339a
00000110: 0827 d030 5b2f 2733 0123 3734 6c1a 0d1b
00000120: e332 07a2 a930 a224 452e 942c 702f 9e2d
00000130: cba9 0215 2e30 68b0 4c16 b630 3baa 44b0
00000140: b925 a330 372b 3a20 4233 f032 c833 0f33
00000150: eb30 b133 0ea4 62b4 8ab0 2924 aab0 262e
00000160: 3226 fa21 10ac f921 9e31 4831 c9a0 1d1d
00000170: 4cab 5c2f ff28 982a acb2 10ad adac f8a2
00000180: 332c cb21 042c 2097 da27 45b0 a52e cda6
00000190: 03ab 53a0 c4b3 1d2a 8daf 6926 5e2d fe27
000001a0: 3f2c 1cac 2a30 aba8 3522 2b32 f431 9eaf
000001b0: caaf 472d 5d2e 18ad 93b1 70af aeb0 4c2b
000001c0: 7f2d 9a30 b72b 61aa 7c2f 73ac 1833 ce2c
000001d0: 662a 6433 c9a4 71ad 1820 83a3 b22b c82d
000001e0: 7c2b d132 06a6 28a0 2930 fb2d 5a32 6734
000001f0: 6433 3130 9a31 8f26 a331 902f 02ac 7033
0.1636 0.1241 0.0861 0.2163 0.2048 0.2737 -0.02364 -0.0652
0.1547 0.1272 0.0485 -0.1615 0.2174 -0.02942 -0.0887 -0.0699
0.1747 -0.0388 -0.0444 0.1714 0.0354 0.0457 0.01796 0.0647
-0.1133 0.02977 -0.0778 -0.004364 -0.0386 -0.1489 -0.2766 -0.07135
0.01709 0.1047 0.183 -0.0889 -0.06076 -0.0505 -0.02371 0.0422
0.05313 0.0979 0.1592 0.029 -0.06143 0.1571 -0.0374 0.1709
0.1974 0.05862 -0.09393 0.1178 -0.1127 -0.007313 -0.0902 0.08057
-0.07306 0.01075 0.1896 0.1647 0.0239 -0.1354 0.1705 0.1368
0.02269 0.3254 -0.0476 0.1442 0.0731 0.01662 0.2014 0.2607
-0.0693 0.1184 -0.1952 0.08984 0.0653 0.1749 0.1716 0.1366
0.04678 -0.1009 -0.002743 0.0974 0.07855 -0.06696 0.002548 0.1257
0.0177 -0.1486 0.01817 0.009796 -0.04776 -0.03041 0.03027 -0.0648
0.05643 -0.1671 -0.08093 0.07697 0.07654 0.1494 0.2041 0.2208
0.10657 0.1877 -0.0963 0.137 0.1537 -0.001051 -0.02374 -0.0494
-0.2037 -0.003479 0.2052 -0.04294 0.0398 -0.04727 0.03745 0.06335
-0.03778 -0.03079 0.06866 -0.3193 -0.1195 0.0593 0.1614 0.04337
0.1307 0.02957 0.1381 0.03047 0.005127 -0.04285 0.1476 -0.003027
0.02747 0.1504 0.1149 0.2235 0.01368 0.2634 0.003136 0.003443
0.2152 -0.01177 0.1456 0.0181 0.09796 0.07153 0.1162 0.08777
-0.04526 0.001223 0.1306 -0.1377 0.001537 0.1472 -0.04868 -0.1333
0.02235 0.1449 0.05637 0.008255 0.2268 0.2168 0.2432 0.2206
0.1537 0.2404 -0.01584 -0.274 -0.1418 0.01625 -0.1458 0.09607
0.0242 0.01167 -0.0635 0.011665 0.1755 0.165 -0.009346 0.004993
-0.057 0.115 0.03903 0.0515 -0.2085 -0.0791 -0.07306 -0.01361
0.0656 0.011314 0.06274 -0.0017395 0.03067 -0.1334 0.1038 -0.02657
-0.05478 -0.008446 -0.2427 0.04776 -0.118 0.02504 0.08386 0.03122
0.06635 -0.0642 0.1301 -0.03647 0.01212 0.1927 0.186 -0.119
-0.1217 0.08246 0.0994 -0.0796 -0.1742 -0.1162 -0.1462 0.057
0.0859 0.1438 0.06027 -0.04984 0.11694 -0.0695 0.2217 0.0751
0.05 0.231 -0.01869 -0.085 0.007996 -0.01467 0.06012 0.09033
0.05847 0.213 -0.02353 -0.00812 0.13 0.09344 0.1985 0.2751
0.231 0.131 0.175 0.02562 0.1761 0.11816 -0.0626 0.2324

conv_layers.6.bias f2 [32]
00000000: 8fac 33a2 f998 7dad 4a14 3020 b5a0 3a92
00000010: 98ad f924 47a6 7f18 37a5 0da0 0ba8 0da5
00000020: 7222 c59b 2ca2 8a9d 1aa5 6523 5423 08a8
00000030: a3a4 5297 a5a4 a0a6 b325 2c25 fd14 58a8
-0.0712 -0.01211 -0.002428 -0.08575 0.001047 0.00818 -0.00919 -0.00076
-0.0874 0.01942 -0.02452 0.002195 -0.02037 -0.00791 -0.0316 -0.01973
0.01259 -0.003794 -0.012054 -0.00541 -0.01993 0.01444 0.01431 -0.0315
-0.01811 -0.001787 -0.01814 -0.02588 0.02226 0.0202 0.001218 -0.03394

conv_layers.6.weight f2 [32, 16, 4, 4]
00000000: c4af 24a9 3aa4 ceaa 20b0 d929 01af c8a9
00000010: 81b1 1ab3 49a9 6f24 d4b0 592a 11aa 9824
00000020: c2b2 d7b0 3ea8 6aa9 2eb0 33ae 48b2 c7b4
00000030: c4ae d4a6 13b3 09b1 34b5 32b2 87ae 6fb2
00000040: 1ab4 76a0 56b2 a7ac 21af 90af 0423 a7b1
00000050: 2da5 baad 06b0 aab0 cdb0 83ad 7db4 fdae
00000060: 71a8 cfac a8b0 7ca4 5bad 99aa 2cb2 2ca8
00000070: 722a 73af 24b1 749a a3a8 fc26 29b4 5fb2
00000080: 8aa8 4d18 b730 8da3 2a28 002d 1d33 7e2f
00000090: 8820 7aae b528 3a2f b38b 43af 0d2f d425
000000a0: 2429 0e9b ea28 552e a7a0 9a20 97a4 532c
000000b0: c513 64b0 27b1 6dac 3e2a 0517 f52b d729
000000c0: c1aa 3531 ce24 3d29 6ab0 9aaf 5f2a 52ac
000000d0: 38b2 ebb2 2ab1 7fad f5b0 66b0 38ad bca8
000000e0: e9ac fb21 a128 4a27 a32a d5ae e228 81a6
000000f0: c034 9130 9215 c630 532e e233 4dac 1e2c
00000100: 0229 6da8 55b4 562c b930 0f24 1e28 2f21
00000110: 562f 25ad d1b0 d9aa d3b2 31ac beab 7bb0
00000120: 63b3 67ae 5bac 31b2 d2b4 44af 1db3 e1a2
00000130: afb0 4db4 4cb0 54ae 18b1 b2b3 86af 17b0
00000140: a2a5 9b2f 8730 ef2f afa3 002f 48a3 932d
00000150: 1731 4923 912d 5f30 9e31 94ac bd22 0fa4
00000160: 232c cc25 091d 9d32 0625 f227 1dac 292e
00000170: 019c 2d2f 2aaf a9a4 ff2f 2927 7da5 8ba3
00000180: 10ad 08a4 a9a0 5d28 662a 43aa f71c fbab
00000190: c6a2 acb0 7ab1 a0b0 4db1 1eac 00a6 bbaf
000001a0: f030 cf30 3030 e432 a733 0e32 b532 9a2b
000001b0: 0331 2434 2a22 4f99 38a9 cb31 64a9 992d
000001c0: 8324 9f2f e82c ffac db29 622b 8b2f cd30
000001d0: 2dae c2a7 45ae 62ad ed23 a6af 8824 59b1
000001e0: 39ac ffae b4ab 5d2d aeae 3929 d9a9 bea2
000001f0: 6da5 daa0 4b2f 9227 0b2c da28 f616 9b2f
-0.12134 -0.04016 -0.01651 -0.05316 -0.1289 0.0457 -0.10944 -0.04517
-0.172 -0.2219 -0.0413 0.01732 -0.1509 0.0496 -0.0474 0.01794
-0.2112 -0.1512 -0.03314 -0.0423 -0.1306 -0.09686 -0.1963 -0.2986
-0.1057 -0.02667 -0.2211 -0.1573 -0.3252 -0.1936 -0.102 -0.201
-0.2563 -0.00871 -0.198 -0.0727 -0.1114 -0.11816 0.0137 -0.1766
-0.02022 -0.0895 -0.1257 -0.1458 -0.15 -0.0861 -0.2805 -0.1092
-0.0347 -0.07513 -0.1455 -0.01752 -0.0837 -0.05154 -0.1929 -0.0326
0.05035 -0.1164 -0.1606 -0.00315 -0.03622 0.02728 -0.26 -0.1991
-0.03546 0.0021 0.1473 -0.01475 0.03253 0.0781 0.2223 0.11707
0.00885 -0.1012 0.03677 0.1129 -0.000235 -0.11346 0.11017 0.02277
0.04016 -0.003445 0.0384 0.09894 -0.00909 0.00899 -0.01793 0.06757
0.0009484 -0.1372 -0.161 -0.06915 0.04877 0.001714 0.06216 0.04562
-0.05276 0.1627 0.01877 0.04092 -0.138 -0.1188 0.04977 -0.0675
-0.1943 -0.2162 -0.1614 -0.0859 -0.1549 -0.1375 -0.08154 -0.037
-0.0767 0.01168 0.03616 0.02847 0.05185 -0.10675 0.03815 -0.0254
0.2969 0.1427 0.00136 0.1492 0.0988 0.2463 -0.0672 0.06433
0.03912 -0.03458 -0.2708 0.06775 0.1476 0.01585 0.03217 0.010124
0.1146 -0.0804 -0.1505 -0.0535 -0.2133 -0.0655 -0.0605 -0.14
-0.2308 -0.10004 -0.06805 -0.1935 -0.3013 -0.1135 -0.2223 -0.013435
-0.1464 -0.2688 -0.1343 -0.0989 -0.1592 -0.2405 -0.11755 -0.1278
-0.022 0.11884 0.1415 0.12396 -0.01501 0.1094 -0.01422 0.0871
0.159 0.01423 0.087 0.1366 0.1755 -0.07153 0.01316 -0.01585
0.06464 0.02264 0.004917 0.2067 0.01962 0.03104 -0.0643 0.09625
-0.00391 0.1121 -0.11194 -0.0182 0.12494 0.02797 -0.02144 -0.01473
-0.0791 -0.01575 -0.0091 0.0341 0.05 -0.04892 0.00485 -0.06235
-0.01323 -0.146 -0.1711 -0.1445 -0.1656 -0.06433 -0.02344 -0.1208
0.1543 0.1503 0.1309 0.2153 0.2391 0.1892 0.2096 0.0594
0.1566 0.2588 0.01204 -0.002592 -0.04077 0.181 -0.0421 0.08746
0.01762 0.1191 0.07666 -0.07806 0.04575 0.05768 0.11786 0.15
-0.0965 -0.0303 -0.09796 -0.0841 0.01548 -0.1195 0.0177 -0.1671
-0.066 -0.1093 -0.06018 0.0838 -0.1044 0.0408 -0.0457 -0.01317
-0.0212 -0.009476 0.11395 0.02957 0.0632 0.0379 0.001699 0.11884

conv_layers.8.bias f2 [32]
00000000: 20a5 58ab eb24 6424 60a2 85a3 f8a5 53a2
00000010: b298 04b1 81a5 1ba4 eb15 c8a5 51a2 10a2
00000020: 2923 9da0 3ba7 2196 8d24 bb17 23a4 59ad
00000030: 10a8 659c 04a5 46b0 d422 39a8 471c e6a7
-0.02002 -0.05737 0.01921 0.01715 -0.01245 -0.01469 -0.02332 -0.01235
-0.002293 -0.1567 -0.0215 -0.01604 0.001445 -0.02258 -0.01234 -0.01184
0.013985 -0.00901 -0.02824 -0.001496 0.01778 0.001887 -0.01616 -0.08356
-0.03174 -0.00429 -0.01959 -0.1335 0.013336 -0.033 0.004177 -0.03085

conv_layers.8.weight f2 [32, 32, 3, 3]
00000000: aa2c 5922 7429 7a2e b427 1d2d 012d da2c
00000010: cd2f 5d29 c1a0 41a9 dca6 0f2e 4226 25a1
00000020: 592c 0d2f 42ae 99a9 beb0 6e29 92a6 672c
00000030: bc2d 9a26 e82e 302c 7130 f52b 01ae 58b0
00000040: c22e 1b8f 7c2c 272c 9bac 2c2b 51a8 b529
00000050: daa7 31ac a924 9922 cca7 ff30 4330 39a5
00000060: 08aa 8727 66ab 621d 35aa b9a8 0429 b720
00000070: 312d fdab 2a2c 36a9 29b0 8926 d520 c1ae
00000080: 3997 0d2c f028 bf21 acb0 1da1 6aae d2b0
00000090: 41a3 05a6 82a3 40ab 7b2f 34a6 b7ad 3b30
000000a0: d82c 1da9 21ad b62f 9ab0 b1a9 51ac 30ab
000000b0: c4b1 33b2 62ad d9a8 612e fb2a d698 69ab
000000c0: 74a4 81a9 4b2c ddad 1025 42ae 4ea9 45ae
000000d0: 29af 6029 3eb3 94ae f6ad 391f a42e 49ac
000000e0: 6231 38ab 7625 4930 34af 6823 b62f 59ac
000000f0: aea6 6622 03ad 85ab 6da9 6ab0 f526 3fae
00000100: 4825 22a4 9fa1 5528 f3ae c9ad 3baa a728
00000110: 4c2a c3a9 d4af 4d30 74af 25a9 88ad f631
00000120: d22c 7234 2321 c326 55aa 2d23 f0ac cba5
00000130: 9aaa 492e 95ad 5520 03b2 9427 1ab0 f4ac
00000140: 9d32 989e 54ad 2128 ae20 d42b 6bac a2a2
00000150: 7dac e02f 0ba9 05a3 8e20 eaaf 24ac 72ac
00000160: 8aa3 752b 8c31 512d 81a8 abae d5b0 47ac
00000170: 05ad 23a9 b32f 36a4 51a9 87ab e833 5dae
00000180: b8a3 0531 c521 94ac 4a1f 8fad f22c 421c
00000190: 8b21 79a9 99a6 93ae 7926 88b0 77b0 c72a
000001a0: b8a5 32b0 5a1f 2e32 c12b 66a8 4d2e 63a4
000001b0: dd29 6ea6 3234 2098 c2ae 142e 11b0 ae20
000001c0: 7baa 6220 77b0 bbad 7c2e 7fae 0dae 2a28
000001d0: 2699 f3ad 502f f4b0 042d e6a7 baad 53ad
000001e0: 69ae f029 2d23 551f 439e 08b0 4527 b2ae
000001f0: 482a f7aa fb19 4030 51a5 68af 0fb1 c02c
0.0729 0.0124 0.0426 0.1012 0.03009 0.0799 0.0782 0.0758
0.1219 0.0419 -0.009285 -0.04105 -0.0268 0.09467 0.02444 -0.01005
0.06793 0.11017 -0.0978 -0.04373 -0.1482 0.04242 -0.02567 0.0688
0.0896 0.02579 0.1079 0.0654 0.1388 0.06216 -0.0938 -0.1357
0.1056 -0.0004337 0.07007 0.0649 -0.07196 0.05603 -0.03372 0.0446
-0.03067 -0.0655 0.0182 0.012886 -0.03046 0.1561 0.1332 -0.0204
-0.04712 0.0294 -0.0578 0.005257 -0.0485 -0.0369 0.03918 0.00921
0.0811 -0.0624 0.06506 -0.0407 -0.13 0.02553 0.00944 -0.1055
-0.001763 0.0633 0.03857 0.01122 -0.146 -0.00999 -0.1002 -0.1506
-0.01417 -0.02351 -0.01466 -0.05664 0.1169 -0.02423 -0.0893 0.1322
0.0757 -0.03995 -0.08014 0.1205 -0.1438 -0.04446 -0.06744 -0.05615
-0.1802 -0.1937 -0.0841 -0.03787 0.0997 0.05453 -0.002361 -0.0579
-0.0174 -0.043 0.0671 -0.0916 0.01978 -0.0978 -0.04144 -0.09796
-0.1119 0.042 -0.2263 -0.1028 -0.09314 0.007053 0.10376 -0.06696
0.1682 -0.0564 0.02133 0.1339 -0.11255 0.014465 0.1205 -0.06793
-0.0261 0.0125 -0.0783 -0.05875 -0.0424 -0.138 0.02718 -0.0976
0.02063 -0.01614 -0.01098 0.03384 -0.1086 -0.0904 -0.04868 0.03635
0.0492 -0.045 -0.1223 0.1344 -0.11646 -0.0402 -0.0864 0.1863
0.0753 0.2778 0.01003 0.02641 -0.04947 0.014015 -0.07715 -0.02263
-0.05157 0.0982 -0.0872 0.00846 -0.1879 0.0296 -0.1282 -0.0774
0.2067 -0.00644 -0.08325 0.03226 0.00914 0.06116 -0.06903 -0.012955
-0.0701 0.12305 -0.0394 -0.01371 0.008896 -0.12366 -0.0647 -0.06946
-0.014725 0.05826 0.1733 0.08307 -0.0352 -0.1042 -0.151 -0.06683
-0.0784 -0.04013 0.1203 -0.01645 -0.04153 -0.0588 0.2471 -0.0994
-0.015076 0.1569 0.01127 -0.07153 0.00712 -0.08685 0.0773 0.004158
0.010826 -0.04276 -0.02577 -0.1027 0.02528 -0.1416 -0.1395 0.05295
-0.02234 -0.1311 0.00718 0.1931 0.06058 -0.03436 0.09845 -0.01714
0.0458 -0.02512 0.2622 -0.002014 -0.1056 0.095 -0.1271 0.00914
-0.05063 0.00856 -0.1395 -0.08954 0.1013 -0.1015 -0.09454 0.03253
-0.002514 -0.09296 0.11426 -0.1548 0.07837 -0.03085 -0.0895 -0.0832
-0.10016 0.0464 0.014015 0.00716 -0.006115 -0.126 0.0284 -0.1046
0.04907 -0.0544 0.00292 0.1328 -0.02077 -0.1157 -0.1581 0.0742

final_proj.bias f2 [320]
00000000: e226 7ca2 3ca1 e4a6 1820 c226 3824 fe90
00000010: 5ea5 6ca6 1da1 dc9c 151e 8da3 4126 1fa0
00000020: bba6 d897 3c27 5a23 d09d 4221 0798 d0a0
00000030: e1a4 0da1 a4a6 4321 461f e421 05a5 c190
00000040: f520 b1a7 8021 ad20 0021 8fa5 679d 1225
00000050: 51a4 f424 0129 4d25 a5a8 71a4 429a 3811
00000060: 4fa1 4d29 369e 57a4 1088 e31b 90a1 a69c
00000070: 1522 0c9c 4195 e9a1 3118 7826 ed21 439e
00000080: 2a21 83a3 7d25 45a9 b318 4324 5520 0326
00000090: 731d 011f 40a5 0b99 f3a3 cb9e 8b11 6d20
000000a0: 92a4 7a9e 0f93 5120 be1b 4fa7 ec20 a1a1
000000b0: 6324 af24 dc21 3a9d 859a 7c25 f48f 301c
000000c0: ff9b 9a99 bd20 38a3 8a98 1e9d caa3 e9a3
000000d0: 5c20 3625 1d9e 7927 41a1 79a6 a11f ca26
000000e0: 6fa8 9c14 6ba6 4926 94a8 2820 e3a0 3a21
000000f0: f824 691e a5a3 2120 2ba3 2d20 18a1 4023
00000100: 541a 0d1c 579e a511 e4a5 cc24 3996 dca1
00000110: 0aa6 a619 b61e d392 9f9b dca4 5d24 c4a3
00000120: 14a3 2198 fa25 bd99 5f1b d397 842a 2e9a
00000130: aa1d 33a6 bba7 ad28 77a6 221b 5d09 379d
00000140: a51e 94a4 439e f89f 66a6 31a0 4c20 a723
00000150: dc25 2a27 3720 0099 8621 c499 0922 fe97
00000160: 8926 4c14 fe0e 261e cc27 bf1c dea1 2aa4
00000170: b927 549b 039c 7d18 799a db9f 82a1 dfa5
00000180: 9a25 7425 d71d 8294 8ca7 12a1 fb25 e6a3
00000190: 3c26 3e24 bda2 761b 8b24 8524 6524 331c
000001a0: 10a1 fa1f 12a9 0d9d e423 6a1c dc22 d985
000001b0: 258b 5c21 0b97 4c94 2221 6627 871e d5a0
000001c0: a41d 38a0 32a7 f117 0528 2324 a186 529e
000001d0: 9b19 cf9c 2b21 349d 398e 3a18 c218 4822
000001e0: 6121 8627 67a4 41a5 5c14 a69f 141c 2220
000001f0: c4a1 dd24 cd25 14a6 e128 2b22 e816 8417
0.02689 -0.012665 -0.01022 -0.02692 0.007996 0.0264 0.01648 -0.0006094
-0.02097 -0.02509 -0.00999 -0.004745 0.00594 -0.01475 0.02443 -0.00805
-0.02629 -0.001915 0.02826 0.01436 -0.005676 0.01027 -0.001966 -0.0094
-0.01906 -0.009865 -0.02594 0.01028 0.007103 0.011505 -0.0196 -0.0005803
0.00968 -0.03004 0.01074 0.00913 0.009766 -0.02171 -0.005276 0.0198
-0.01686 0.01935 0.0391 0.0207 -0.0363 -0.01735 -0.003056 0.000637
-0.01037 0.0414 -0.006065 -0.01695 -0.000124 0.00385 -0.010864 -0.00454
0.01188 -0.003952 -0.001283 -0.01154 0.002047 0.02527 0.01157 -0.006115
0.010086 -0.01467 0.02144 -0.04117 0.002295 0.01665 0.00846 0.02348
0.00532 0.00684 -0.02051 -0.002462 -0.015526 -0.006634 0.0006766 0.008644
-0.01785 -0.006325 -0.0008616 0.00843 0.00378 -0.02855 0.00961 -0.010994
0.01714 0.0183 0.011444 -0.005104 -0.003183 0.02142 -0.0004854 0.00409
-0.003904 -0.002735 0.009254 -0.0141 -0.002216 -0.004997 -0.01521 -0.01545
0.008514 0.02036 -0.00597 0.02919 -0.01026 -0.02528 0.00745 0.02652
-0.03464 0.001125 -0.02507 0.02455 -0.03577 0.00812 -0.009544 0.01021
0.01941 0.00626 -0.01493 0.008064 -0.014 0.008156 -0.00995 0.01416
0.00309 0.003956 -0.00619 0.000689 -0.02301 0.01874 -0.001519 -0.011444
-0.02359 0.002758 0.006554 -0.000833 -0.003721 -0.01898 0.01704 -0.01517
-0.013824 -0.002016 0.02335 -0.002802 0.0036 -0.00191 0.0509 -0.003017
0.00553 -0.02422 -0.0302 0.03653 -0.02525 0.003483 0.0001637 -0.005093
0.00649 -0.01788 -0.006115 -0.007782 -0.025 -0.00819 0.00839 0.014946
0.02289 0.02798 0.00823 -0.002441 0.01079 -0.002815 0.01179 -0.001951
0.02553 0.001049 0.0004268 0.006004 0.03046 0.004635 -0.01146 -0.01627
0.03017 -0.003578 -0.003918 0.002192 -0.00316 -0.00767 -0.01076 -0.02293
0.02188 0.0213 0.005703 -0.001101 -0.02948 -0.0099 0.02336 -0.01543
0.02435 0.01657 -0.01316 0.003643 0.01775 0.01765 0.01717 0.0041
-0.00989 0.00779 -0.0396 -0.004932 0.01541 0.00431 0.0134 -8.92e-05
-0.000218 0.01047 -0.001719 -0.001049 0.010025 0.0289 0.006374 -0.00944
0.00551 -0.00824 -0.0281 0.001939 0.0314 0.01616 -0.00010115 -0.006172
0.002737 -0.004696 0.01009 -0.00508 -0.0003798 0.002064 0.002323 0.01227
0.010506 0.02939 -0.0172 -0.02052 0.001064 -0.00747 0.003983 0.00807
-0.01126 0.019 0.02266 -0.02374 0.03812 0.01205 0.001686 0.001835

final_proj.weight f2 [320, 128, 1, 1]
00000000: 4a9e 2ba5 d5a4 7020 6b2b 7022 3724 fea1
00000010: 49a5 85a6 812b dca4 b3a6 8ca6 932a 9c19
00000020: 77a4 d1a8 e521 c3ab 2823 7a17 259f fd17
00000030: c723 8420 c2a4 1429 2f9c ed28 f1a8 6f24
00000040: f920 a421 9624 4390 9ca0 b5a5 d423 a225
00000050: 85a4 d4a2 0027 931d fda6 5698 db20 0196
00000060: c11f dc06 44a3 41a9 d828 041d 5f26 68a9
00000070: 36a6 7428 0427 1da1 1b21 4ea8 fc19 aa2b
00000080: 23a2 0a28 9d1f a820 a315 5ca0 7526 7f1d
00000090: 6f25 8592 6a27 34a9 e2a7 1f24 361f cea8
000000a0: 0022 6410 31a5 73a8 29a7 9b25 50a2 dc26
000000b0: f6a8 801f 1128 d119 6d23 8d1d a623 2f24
000000c0: 001e c4a0 bea7 6299 caa4 7a23 7024 01a3
000000d0: b599 0923 e820 98a1 6620 de27 a923 5325
000000e0: 0327 a4a4 dea2 5021 a81a a823 3890 fe1d
000000f0: e724 96a2 9525 099a 59a5 261e 2aa8 f4a2
00000100: f5a1 a724 2c9c 771b 0aa3 3f9d a31e b125
00000110: e121 1921 c91d 0222 d4a4 ca21 299e 1225
00000120: 271c d521 62a8 3390 6a17 9120 530a 629f
00000130: bd1f 13a0 da23 7b20 0fa4 620f 991e b31c
00000140: 0ca1 8418 ec95 bd20 4e22 0925 5d20 f290
00000150: 1b20 4518 bea5 9299 d127 d117 f49f 009a
00000160: 70a1 c499 d1a6 1222 199d db9e 25a4 8198
00000170: 0ea0 8221 fd9a 5188 5e97 9f96 0924 349a
00000180: af1c 869d b51a ba1d db9c 43a2 5620 991c
00000190: 09a4 2aa7 7ba6 cf25 e324 fb1e d199 671c
000001a0: 829d 0f9f 48a3 cba4 4317 56a0 6327 49a2
000001b0: 2e25 9ba0 18a0 a3a5 2e20 259f 2004 13a5
000001c0: 511b b89f 32a1 a2a4 d29b 4da4 211e 8124
000001d0: f295 1e27 0722 c214 5095 e2a3 ee14 2d9d
000001e0: d424 79a1 e420 2a27 2da4 461d 1f22 1d95
000001f0: 0fa4 e11c 40a4 149c f31d eba2 cda0 3e22
-0.00614 -0.02019 -0.01888 0.00867 0.05795 0.01257 0.01646 -0.0117
-0.02065 -0.02547 0.05862 -0.01898 -0.02617 -0.02557 0.05136 0.002739
-0.01744 -0.03763 0.01151 -0.06064 0.01398 0.001825 -0.006977 0.00195
0.01519 0.00882 -0.01859 0.03967 -0.004086 0.03848 -0.0386 0.01732
0.00971 0.01102 0.01791 -0.00052 -0.009 -0.0223 0.01529 0.022
-0.01765 -0.013336 0.02734 0.005444 -0.0273 -0.002117 0.00948 -0.001466
0.007572 0.00010467 -0.01419 -0.04105 0.03784 0.004898 0.02489 -0.04224
-0.02426 0.0348 0.0274 -0.00999 0.00997 -0.03363 0.002922 0.05988
-0.011986 0.03156 0.007435 0.009094 0.001376 -0.008514 0.02522 0.005367
0.02122 -0.000796 0.02896 -0.04065 -0.03079 0.0161 0.007042 -0.03754
0.01172 0.000536 -0.02028 -0.03476 -0.02797 0.0219 -0.01233 0.0268
-0.03876 0.007324 0.03177 0.00284 0.0145 0.00542 0.01494 0.01634
0.00586 -0.00931 -0.03024 -0.002628 -0.0187 0.0146 0.01733 -0.01368
-0.002787 0.01374 0.00958 -0.010925 0.00859 0.03073 0.01496 0.0208
0.02739 -0.01813 -0.01341 0.010376 0.00325 0.01495 -0.000515 0.00585
0.01915 -0.01286 0.0218 -0.002947 -0.02089 0.006004 -0.03253 -0.01358
-0.011635 0.01817 -0.004074 0.003645 -0.01375 -0.005123 0.00648 0.02223
0.01148 0.00996 0.00565 0.011734 -0.01886 0.01131 -0.006016 0.0198
0.004055 0.01139 -0.03424 -0.0005126 0.00181 0.00892 0.000193 -0.00721
0.007557 -0.00796 0.015335 0.00875 -0.01585 0.0004506 0.006443 0.00459
-0.00986 0.002205 -0.001446 0.009254 0.012314 0.01967 0.00852 -0.0006037
0.00802 0.002085 -0.02243 -0.00272 0.03053 0.001908 -0.007767 -0.00293
-0.01062 -0.002815 -0.02663 0.011856 -0.00498 -0.006695 -0.01619 -0.0022
-0.00792 0.01076 -0.003412 -0.0001317 -0.001799 -0.0016165 0.01576 -0.003029
0.004574 -0.005394 0.003275 0.005592 -0.00474 -0.01223 0.00847 0.00449
-0.01576 -0.02798 -0.02531 0.02269 0.01909 0.006817 -0.00284 0.0043
-0.00538 -0.006893 -0.01422 -0.01872 0.001773 -0.00847 0.02885 -0.012276
0.02023 -0.008995 -0.007996 -0.02202 0.00816 -0.006977 6.294e-05 -0.01982
0.003572 -0.007538 -0.01015 -0.0181 -0.003819 -0.0168 0.005985 0.0176
-0.0014515 0.0278 0.01177 0.001162 -0.001297 -0.015396 0.001204 -0.005054
0.01886 -0.01069 0.00955 0.02798 -0.01631 0.00515 0.011955 -0.001248
-0.01585 0.004765 -0.0166 -0.003983 0.00581 -0.01351 -0.00938 0.01219
